data copy/ckpoint/tnn2diff.pt (torch, 53404 bytes, 46 tensors)

blk1.0.weight f4 [8, 1, 9]
00000000: ef62 ccbd 67be 06be 4b60 08bd 080a a33e
00000010: e56b 20bd 76d5 833e 4d38 7bbe a225 0bbc
00000020: b1c4 813e ce4d 913e 6b0e c63c 5368 9abe
00000030: 3d48 5c3e 9cc7 1fbd 8c20 8fbe 0f46 133e
00000040: 95ae 243e 215d 813e dd90 efbd d9f1 20be
00000050: 146b 32be 1496 9d3e ce94 b1be 2a88 67be
00000060: 8717 4d3e ceb5 20be 3c65 5abd e5a9 093d
00000070: b32e fdbd 7dc2 973d e526 31be 76cc 803d
00000080: 03e7 a43e 3dde a73e 4de0 c4bd ed5c 873b
00000090: 164d 64be cd8a 473e 8fd3 92be 6625 0fbe
000000a0: 60c1 1fbd 43ae f93a 1468 923e 1213 913e
000000b0: eeaf 5c3e 97c4 48bd 2126 a63d 3f48 7ebe
000000c0: 304a 8f3e 75b9 ccbd 8f61 a13e d2c7 2c3e
000000d0: d6e3 19be 51ba 7cbd 78fd 6a3e c528 7d3e
000000e0: d31a 813e 3fe2 9bbe db5b 93bd f1f2 a0be
000000f0: 9b9f aabe d5cb 2b3d c3bb 553e e618 a0bc
00000100: d763 43be f059 a8bd f7f8 68bd 70b5 6a3e
00000110: 612e a6bd a9d0 993e 30ad aa3e 7445 d73d
-0.099798076 -0.1315857 -0.033294957 0.3184359 -0.039165396 0.25748795 -0.24533196 -0.008492859
0.25345376 0.28379673 0.024176797 -0.30157718 0.21511932 -0.03900872 -0.2795452 0.14382194
0.16082223 0.25266364 -0.11697552 -0.15717258 -0.1742366 0.30778563 -0.3468384 -0.22610536
0.20028506 -0.15694353 -0.0533192 0.03360929 -0.12362423 0.074101426 -0.17299993 0.06288998
0.32207498 0.32786742 -0.096130945 0.0041309507 -0.22295031 0.19486542 -0.2867703 -0.1397911
-0.039002776 0.0019049126 0.2859503 0.28334862 0.21551487 -0.049015608 0.08112741 -0.24832247
0.27986288 -0.099963106 0.31519744 0.168731 -0.15028319 -0.061701123 0.22948253 0.24722584
0.25215778 -0.3044605 -0.071952544 -0.3143535 -0.33324894 0.041942436 0.20872407 -0.019543123
-0.19081055 -0.08220279 -0.056878056 0.22920775 -0.08114315 0.30042008 0.33335257 0.10511294

blk1.0.bias f4 [8]
00000000: 23b8 95be 1f1f 14bd 349b 833c 29e0 fc3d
00000010: 59cc 1fbe e4c8 94be 54ce 423d d5ef fbbc
-0.29242048 -0.036162492 0.016065218 0.12347443 -0.15605296 -0.29059517 0.04756005 -0.03075401

blk1.1.weight f4 [8]
00000000: 01e2 803f 4af1 7f3f 8015 813f e66d 803f
00000010: a997 803f 88de 7b3f 81d8 7b3f 8300 7f3f
1.0068971 0.9997755 1.0084686 1.0033538 1.0046283 0.9838643 0.98377234 0.99610156

blk1.1.bias f4 [8]
00000000: 525d 69bc 3964 40bd 932c 2f3d bb99 b9bd
00000010: 18b4 a5bd f598 aebd bf5c 04bc f4dc 503c
-0.014243441 -0.04697058 0.04276712 -0.09062525 -0.08090991 -0.08525268 -0.008078753 0.012747992

blk1.1.running_mean f4 [8]
00000000: e443 3dbe 4ed8 0d3e 394f 80be 05e2 933e
00000010: 8e4d fabc 1844 4fbe ef51 b13c 889e 3b3e
-0.1848293 0.13852045 -0.25060442 0.28883377 -0.03055456 -0.2024082 0.021645514 0.18322194

blk1.1.running_var f4 [8]
00000000: 2f1a 233b c6fc d43b 1134 843c 36b9 c63b
00000010: 02e4 893b 239f f23a 5489 753a 5bc0 253c
0.0024887433 0.0064998595 0.016138108 0.0060645593 0.004208089 0.0018510561 0.0009366472 0.010116662

blk2.0.0.weight f4 [16, 8, 4]
00000000: 1145 053e 17a3 ab3d f2a6 d7bd e3f4 f33d
00000010: 7d86 8d3b 8206 053d c35b fe3d 0716 1bbe
00000020: 9dd8 fbbc e0d7 00be cd36 c63d 3479 db3c
00000030: 3d0c 08be 4d47 3c3e 007d f9bd 118c 023e
00000040: 00e6 d13d e7b8 50bd 189f 9d3d 43c7 be3d
00000050: 5c96 9cbd ac01 eb3d 9b4d e9bd 5ef2 f6bd
00000060: 3201 89bd 2bea 13be 9fff fb3b 52ea eebd
00000070: c37f 363e 8244 0ebe 214b b6bc d85b 15be
00000080: df45 08be 5992 08be 1f14 21be 567e 0ebe
00000090: 9456 003e 5a3c f5bd 131d 63bd d6ce 96bd
000000a0: 4aa1 b83d 749e 993d a23b 1e3d a20f f93d
000000b0: 65fa a43d e174 18be dcc5 97bb 2b0e 1a3d
000000c0: 10d1 fd3c 3868 0cbe d647 7d3d 3be5 e33d
000000d0: 6166 a1bc 117d dbbc 26ea 07be 6342 553d
000000e0: 4979 203e 3c82 4e3e 81b0 37be 9c37 8b3d
000000f0: ccd9 293e f15e 073e d21a f73d 6b07 1cbd
00000100: f028 cd3d 1ace ed3c cd94 f2bc 3b31 52bc
00000110: 0326 8e3d 9798 863c 4e62 1a3e 54fb 8dbd
00000120: 7bf8 533e 6c73 2dbb bb00 5fbd e36d b23d
00000130: 323b fc3d 6e2a 38bd 2eb1 063e 2589 643c
00000140: 3bf2 3a3b ac52 c03d ce3f 4dbd 73e5 063e
00000150: 351f febd 792d ff3c d712 40bd 6bcb 4dbd
00000160: 9937 f9bd aa18 043e 39ca e3bd 6e93 b3bd
00000170: 855f 8d3d 9bea 383e eaa6 2cbd 74ee 00bd
00000180: 8234 5dbc 4cb2 19be 1ba6 a8bd 22c7 19be
00000190: 8b47 153d b178 bcbd 2061 bdbd fd53 013d
000001a0: e7ad 1fbe b23e d5bd f8b2 31be 3c41 e4bd
000001b0: dd8d 55bd 0b2d 57bd 39a2 02be e312 143e
000001c0: f2e6 ff3d d3fc 79bd 8c9b 3c3e bd85 813d
000001d0: b609 ddbd dd2c 163e c36f a6bd e407 973c
000001e0: 7d7d 97bd de15 4ebc 1c98 60bc 8594 8ebd
000001f0: b891 893d d736 253d d620 b63c a7be acbd
00000200: 6457 d3bd 5de3 b0bd d6bb 4abe 4d19 08be
00000210: 1d5c 52bd 9115 a93c 11c2 dd3b bf09 2d3d
00000220: 1494 0bbe d858 7c3d c8fd d0bd 1ab0 113e
00000230: 3141 2fbc 1ca8 5f3d eae3 f8bd 5ba4 52be
00000240: c8c2 a3bd b3f6 9c3d 69db e3bd 93de b6bc
00000250: 2cc8 25bd 547f dc3d 4d30 80bc 58d6 4ebd
00000260: 6133 4e3d 7e41 eabd 39c0 f43c 370b f5bd
00000270: abef 783d cb49 1b3e bfd2 ac3a 5401 a03d
00000280: 298c b13d 4015 abbd 7647 0e3e 51d3 28bd
00000290: 74b3 0bbe 1e19 06be fc73 22be acb5 173e
000002a0: 8f22 41bd 4dd9 82bd 657f 153e f82d f7bd
000002b0: 0a16 f83d af15 c8bd 0f14 c1bd ed18 693c
000002c0: 7cc2 09be 6351 aebd 8e6b 703d 8666 553d
000002d0: b779 213e c3c5 b8bd 9a23 503b 4be2 343d
000002e0: c72f d23d 2ce5 8c3d c59f 65bb 127c 1b3e
000002f0: ff3f dfbd 997b 243e 84db 29be 91a8 54bd
00000300: 7b08 2fbe d838 f53c 4d08 2a3c 0605 6abc
00000310: fca5 ce3d 3d82 42bd 4ebc 0d3d 82c2 c43b
00000320: 4756 233d 9506 8b3d 4e60 203e 3032 f23d
00000330: 5aaf 363e 3144 93bd d33e 9ebc 820f 80bd
00000340: 84cf 46be aba2 3bbe e864 19be 4fd9 ee3d
00000350: 30f9 b83d 5b72 6cbd 9a07 f0bd c18b 12bd
00000360: 65a7 acbd 304d 0dbe 6701 ee3c 7107 a13d
00000370: d9cc 6b3d 1ae9 bf3d 3273 c53d bede 50bc
00000380: 249e b6bd b406 8abd 3276 12bc 84db 283e
00000390: ad54 82bd 99f4 bbbd b408 563d 65e3 633d
000003a0: 6d22 fd3d 8b02 0b3d 7d23 f2bd 8f48 c73d
000003b0: 50f1 0d3e bbbb 3c3e 8363 12bc 6041 4cbc
000003c0: 001b cc3b 5577 e53d d708 d83d f291 fd3d
000003d0: c6fb 20be 3783 fa3d 2330 b8bd bbd9 bfbd
000003e0: 1604 b23d b9e1 c8bd 835a bebb b2d0 613d
000003f0: 3c0b 97bd 0475 8bbd a302 c63d 82fd ccbb
0.13014628 0.08380716 -0.10529889 0.11911943 0.004319011 0.03247691 0.12419846 -0.15145122
-0.030742938 -0.1258235 0.09678421 0.026791193 -0.13285919 0.18386574 -0.12182045 0.12748744
0.10248947 -0.050957587 0.0769636 0.0931535 -0.07645866 0.11474928 -0.11391755 -0.120579466
-0.06689681 -0.14444797 0.0076903845 -0.11665787 0.17822175 -0.13893321 -0.022252621 -0.14585817
-0.13307904 -0.13337077 -0.15730332 -0.13915381 0.12533027 -0.11974402 -0.05544765 -0.073636696
0.090151384 0.07500926 0.03863109 0.12161185 0.080555715 -0.14888336 -0.004631741 0.037611168
0.030983478 -0.13711631 0.061836086 0.111277066 -0.019702138 -0.026793035 -0.13272914 0.052065264
0.15671267 0.20166868 -0.17938425 0.06797716 0.16586989 0.13219811 0.120656624 -0.03809301
0.10017574 0.029028941 -0.02961197 -0.01282912 0.06940844 0.016430182 0.15076563 -0.06932703
0.20700257 -0.0026466502 -0.054444056 0.087123655 0.12315978 -0.04496234 0.13153526 0.013948713
0.0028525728 0.093907684 -0.050109677 0.13173465 -0.12408296 0.031149613 -0.046892967 -0.050242823
-0.121688075 0.12900034 -0.11122555 -0.08768354 0.069029845 0.18058245 -0.04215137 -0.031477407
-0.013501288 -0.15009421 -0.08234807 -0.1501737 0.03644518 -0.092027076 -0.09247041 0.031574238
-0.15593682 -0.10412349 -0.17353427 -0.11145255 -0.052137244 -0.05253319 -0.12757196 0.1446033
0.12495221 -0.061032128 0.18418711 0.06324337 -0.10792868 0.14665551 -0.081267856 0.01843638
-0.07396982 -0.012578456 -0.013708141 -0.069619216 0.06717247 0.040335502 0.022232454 -0.084348015
-0.10319403 -0.08637116 -0.19798216 -0.13290901 -0.051357377 0.020640166 0.0067675193 0.042245623
-0.13630706 0.061608166 -0.10204655 0.14227334 -0.010696695 0.05460368 -0.12152846 -0.20570509
-0.07996136 0.07664242 -0.111258335 -0.022322929 -0.040474102 0.107664734 -0.015648032 -0.050497383
0.050341967 -0.11438273 0.029876815 -0.1196503 0.06077544 0.15164869 0.0013185366 0.07812753
0.086693116 -0.083536625 0.13894448 -0.041217152 -0.13642675 -0.13095519 -0.15864557 0.14815396
-0.0471521 -0.06389103 0.14599378 -0.12069315 0.121135786 -0.09769761 -0.09427654 0.014227134
-0.13453096 -0.08511617 0.058696322 0.052099727 0.15769087 -0.09022095 0.0031759501 0.044161122
0.10263019 0.068796486 -0.0035037857 0.15184048 -0.10900878 0.16062774 -0.16587645 -0.05191857
-0.17093079 0.029934332 0.010377956 -0.014283424 0.10090253 -0.047487486 0.03460341 0.0060046325
0.039877202 0.06788365 0.15661737 0.11825979 0.17840329 -0.07190741 -0.019317066 -0.06252958
-0.19415098 -0.18323772 -0.14979899 0.11662542 0.09031904 -0.057726245 -0.117202 -0.03577781
-0.084303655 -0.13798976 0.029053403 0.078627475 0.057568405 0.093706325 0.096411124 -0.012748418
-0.08916882 -0.0673956 -0.008939313 0.16489989 -0.06363807 -0.09177513 0.052254394 0.055636782
0.12360082 0.033937972 -0.11823175 0.09730636 0.13861585 0.18430988 -0.008934858 -0.0124667585
0.0062288046 0.112044014 0.10548561 0.123813525 -0.15721044 0.122320585 -0.08993556 -0.09367701
0.086921856 -0.09808678 -0.0058091297 0.055130668 -0.0737519 -0.06809428 0.09668472 -0.0062558064

blk2.0.0.bias f4 [16]
00000000: ff3c c1bd 308c 70bd 006a 9bbc a3dd 04bd
00000010: 13a5 dbbd 5304 ac3d 0228 e6bc db27 be3d
00000020: 8a94 d63d f9ff 11be a5a8 2d3d cd01 e93d
00000030: 6a33 103e f852 0fbe 62aa a43d 27c6 d2bc
-0.09435462 -0.058727443 -0.018971443 -0.03243793 -0.10724845 0.08399262 -0.02809525 0.092849456
0.1047755 -0.14257802 0.04239716 0.113772966 0.14082113 -0.13996494 0.080403104 -0.025729252

blk2.0.1.weight f4 [16]
00000000: fac2 7d3f 05f6 783f a9a6 823f 461b 7c3f
00000010: f647 763f 9868 833f a2be 733f f67a 723f
00000020: f1f6 823f f972 7b3f 194a 813f b5ad 7e3f
00000030: fa3e 823f 5fc4 813f b0af 863f 741f 843f
0.99125636 0.97250396 1.0207111 0.98479116 0.96203554 1.0266294 0.9521276 0.94718874
1.023161 0.9822231 1.0100738 0.99483806 1.0175469 1.0138053 1.0522366 1.0322099

blk2.0.1.bias f4 [16]
00000000: 97b2 24bd 1beb 18bd 30cf e7bc 750d 94bd
00000010: 812c 7ebd 1790 0dbd 098a f7bc f6e1 99bd
00000020: a008 44bd cae0 51bd e58e 08bd 964f 99bd
00000030: 2352 23bd 969e d2bb ac79 00bd e844 0cbd
-0.04020938 -0.03733359 -0.028297037 -0.07229129 -0.06205416 -0.034561243 -0.030217187 -0.07513802
-0.047859788 -0.051239766 -0.0333394 -0.07485883 -0.039873254 -0.0064275963 -0.031366035 -0.0342454

blk2.0.1.running_mean f4 [16]
00000000: 85c1 7cbe f035 533c 1476 213e d0a4 c9be
00000010: 0ef9 b7be 9875 da3d c645 753a 691b 8e3e
00000020: f7b9 f33e dcae 49be 5b02 57bc a78b ab3e
00000030: ce66 143c 04c0 283d cde8 60bb 68ee ad3d
-0.24683197 0.012891278 0.157677 -0.39383554 -0.359322 0.106669605 0.00093564054 0.27755287
0.47602817 -0.1969561 -0.01312312 0.33504984 0.009057714 0.041198745 -0.0034318448 0.08492738

blk2.0.1.running_var f4 [16]
00000000: 3942 6f3d 4c9e 483e be69 593d 8e2c 983d
00000010: cee5 dc3d 0c28 503d c395 003e 0334 333d
00000020: e7bf 373e 08ff 533e e94d 8a3c 993b e43d
00000030: 1c7d 303d 60ae 483e 8cd8 923c 05fe 893c
0.058412764 0.19591635 0.05307936 0.07430373 0.10786019 0.05081944 0.1255713 0.043750774
0.17944299 0.20702755 0.016882854 0.1114418 0.043088064 0.19597769 0.017925523 0.016844759

blk3.0.0.0.weight f4 [32, 16, 4]
00000000: 194d dbbd 52c4 56bc fa02 923d 5117 65bc
00000010: 33f8 a23d 5b9e b53d 595d 993d b854 70bd
00000020: d336 8d3c c54f a23d cb75 83bb 19e5 e2bc
00000030: 81cc 583d cb36 85bd 5204 ebbb 7202 d0bd
00000040: a00f f4bc cf4e 533d a7f9 b439 ee6c 823d
00000050: 2603 14bd d44f 8abd 5da1 b63b 3dbb 5b3d
00000060: 14da 0abe e2d2 df3d 09bf 76bd 5eef 64bd
00000070: 3379 bc3c f3fd 523c f7d6 ebbd f8e7 8b3d
00000080: c7cf 003d 4aab b4bc 999f 2fbd 21f5 503b
00000090: 9e60 9e3d 6170 813c b14e a73d 3b62 72bd
000000a0: 7210 6f3b 0528 bc3d 52ae 6c3d ed2e 14be
000000b0: 4d68 093e d183 c7bd 4fcf d1bd 1e02 953d
000000c0: 9a42 943d 2864 8c3c ec00 dcbd 34ad 6a3c
000000d0: 361d c63d a079 a3bc e395 ef3d 4d32 903d
000000e0: c9c6 92bc 8508 09bd 12c7 733c 2a75 723d
000000f0: fc31 013e 8c74 fa3d 24ac 87bd a893 08bd
00000100: 419b f6bd e9ba a2bd f7fd d8bd b7bf eebd
00000110: d859 8f3b 6308 94bd d992 6cbd f957 b5bd
00000120: ddcd febb b02b b13d 297e a4bd 8654 de3d
00000130: 2a3f 7abd 4e63 d7bd 5375 46bd dd42 f3bb
00000140: 1618 abbd 14bd ef3c d443 af3d 8678 5e3d
00000150: b2e7 1a3d 25ed 53bd d502 f23c fbd5 c93d
00000160: 0352 5c3b b956 d73d 8d9e 8b3d 5bee 373e
00000170: 8694 c1bd f001 91bd 8b46 c73c d69c ab3d
00000180: 32d8 453d 6823 b93d d770 05be 4937 d13d
00000190: 94eb 47bd c440 4e3d f259 08be d5d3 113e
000001a0: f3cb 9f3d f3cc 0c3e 8cc2 dbbd 5573 723d
000001b0: e7ca 1f3d e6e0 80bd de00 93bc ce30 c23c
000001c0: 629a d1bd c5d0 a9bd 1b94 89bd 5c15 473d
000001d0: bc0c c33d 6294 31bd e034 ac3c 3de5 993d
000001e0: 7a84 a6bd daa2 523d c710 80bd 7cc4 e7bc
000001f0: 2680 adbd 16eb eabd 08cd f63c 1652 17bd
00000200: 27ca a73d 8373 0c3e 1810 6bbd e24a 9a3a
00000210: a3c3 bcbd a3ad 223c ad27 3c3c 8e28 85bd
00000220: f74a 66bd 6cf4 8e3d cb9f aebd 6756 ff3d
00000230: 9f72 eebd 2328 36bd 2934 873d b168 17bd
00000240: fed9 573d 3f64 293d e335 9cbd e685 55bd
00000250: 037a bd3d 2c0b b0bd 7097 edbb 1f63 c03d
00000260: 2192 933d 1a89 973d 1c4c 3f3d 4db7 48bd
00000270: a14e 89ba db80 f2bd 0ce6 9d3b 4cd8 1fbd
00000280: f9a2 9d3c f42b b4bd f4a1 e73d 6d26 9fbd
00000290: 72b4 d9bd 23fa df3d 9a00 3cbd 5a4c c1bd
000002a0: 816a 553c 5b5d a73c ef27 913c 0736 d6bd
000002b0: 86c4 113d 6d95 a2bd 6f62 82bd 0679 a8bd
000002c0: b09f 063e 061d cbbd fe9a 37bd 9ecf 0d3d
000002d0: 10fa 1f3d 13d7 4e3d fc5c c63c 8bda 833d
000002e0: f811 bcbd ddc4 c4bd e75e a3bc c3f9 b43d
000002f0: b058 9abd 4c12 ecbc fda3 2e3c c84d 753d
00000300: 5a1b 64bc 5c26 2fbd 00c7 bcbd 74df 173d
00000310: 078c 0ebd 67da 0abd 0a1b 63bc 7959 67bc
00000320: 4ae3 bd3c 1888 053d 8d4a af3d 0730 ba3d
00000330: d930 b83d f00f febd 75c5 b03d 9840 84bd
00000340: 63dd 603d d8c7 54bd eabd 2cbe adcd b0bd
00000350: 0f43 8bbc 8ec5 8f3d be82 81bd 860b b4bd
00000360: 81da a7bd d429 d4b9 729b 03bd ca9d 443d
00000370: 214a f93b bbd3 6ebd b7b9 a13d 54c5 bfbd
00000380: 0a21 95bd 3efc bf3d e5d4 2d3c ccf6 8c3d
00000390: 8073 3ebd dec0 ebbd 1b98 393d 3ad0 d83b
000003a0: cc94 c73d 6cb2 e3bd 291e 85bd d4d8 94bd
000003b0: 50ad a238 50f4 afbd b30a 13bb 3b16 b13c
000003c0: ad35 32bd c981 acbd ce17 efbd e96c 7f3a
000003d0: 0d2d 9e3d 258b a63a 89ec 12bd da21 433d
000003e0: d63f 51be e0fa ef3d 28f8 debb 58c6 88bd
000003f0: 7ee0 a0bc 2311 7b3d c831 58bd 3131 853d
-0.107080646 -0.01310833 0.07129474 -0.01398261 0.079574965 0.088680945 0.07488508 -0.058674544
0.017238056 0.07925371 -0.0040118448 -0.027697133 0.052929405 -0.065045916 -0.007172146 -0.101567164
-0.029792607 0.05158883 0.0003451828 0.06368433 -0.036135815 -0.06753507 0.005573435 0.05364536
-0.13559753 0.109288946 -0.06024078 -0.05589234 0.023007011 0.012877929 -0.11515611 0.06831354
0.031448152 -0.022054333 -0.042876814 0.003188439 0.07733272 0.015800657 0.08169306 -0.05917571
0.0036478308 0.091873206 0.057783432 -0.14471026 0.13418694 -0.09741939 -0.10244619 0.072757944
0.07239266 0.017137602 -0.10742363 0.014323521 0.0967354 -0.019955456 0.116985105 0.07040844
-0.017917054 -0.03345539 0.014879005 0.059193768 0.12616724 0.12229261 -0.0662463 -0.03334394
-0.12041331 -0.079458065 -0.10595315 -0.116576605 0.004374724 -0.07228162 -0.057757232 -0.0885467
-0.0077760057 0.08650911 -0.08031876 0.10855965 -0.061095394 -0.10516988 -0.048451733 -0.007423742
-0.083542034 0.029264964 0.08557859 0.05431416 0.037818618 -0.05173983 0.029542366 0.09855267
0.0033618219 0.10514588 0.068173505 0.17962019 -0.09452157 -0.07080448 0.02432563 0.083795235
0.048301883 0.09039956 -0.13031326 0.10215623 -0.04880865 0.050354734 -0.13315561 0.14240964
0.07802572 0.13750057 -0.10730466 0.05919202 0.039011862 -0.06292896 -0.01794475 0.023704913
-0.10234524 -0.08291773 -0.06717702 0.048604354 0.09523913 -0.0433544 0.021021307 0.07514427
-0.08130737 0.05142484 -0.062532 -0.028291933 -0.08471708 -0.1147062 0.030127063 -0.036943518
0.081928544 0.13715939 -0.057388395 0.0011771584 -0.09217002 0.0099290935 0.011484069 -0.06501876
-0.056223836 0.069802135 -0.08526572 0.12467652 -0.11642956 -0.04447187 0.06601746 -0.036965076
0.052698128 0.041355368 -0.076274656 -0.05212965 0.092517875 -0.08595881 -0.007250719 0.09393906
0.07205606 0.07399197 0.046703443 -0.049002934 -0.0010475704 -0.118409835 0.0048186835 -0.039024636
0.01924275 -0.08797446 0.11310187 -0.07771001 -0.1063012 0.10936382 -0.04589901 -0.09438391
0.013025881 0.020430258 0.017719237 -0.10459524 0.03558781 -0.07938657 -0.06366431 -0.082262084
0.13146853 -0.09917645 -0.044825546 0.034621827 0.039056838 0.05049808 0.02421426 0.06438168
-0.09183115 -0.09607861 -0.019942714 0.08836701 -0.07536447 -0.028817318 0.010659215 0.05988863
-0.013922537 -0.04276119 -0.09217644 0.037078336 -0.03480151 -0.03389969 -0.013861427 -0.014120453
0.023179669 0.032600492 0.08559141 0.09091192 0.08993692 -0.124053836 0.08631412 -0.06457633
0.05489863 -0.0519484 -0.16869321 -0.086329795 -0.01699975 0.070201024 -0.06323765 -0.087912604
-0.08195973 -0.00040466955 -0.032130666 0.048002042 0.007607714 -0.05830739 0.078967504 -0.09363809
-0.07281692 0.09374283 0.01060984 0.0688301 -0.046496868 -0.11511396 0.045311075 0.0066166194
0.097451776 -0.11118016 -0.06499893 -0.07267919 7.757044e-05 -0.08591521 -0.0022436797 0.021617046
-0.04350822 -0.08423192 -0.11674462 0.0009743707 0.077234365 0.0012706263 -0.03587011 0.047639705
-0.20434508 0.117177725 -0.006804485 -0.06678456 -0.019638296 0.06129564 -0.05278185 0.06503523

blk3.0.0.0.bias f4 [32]
00000000: 8c5b ecbd 315d f2bd 735c 98bd 0f8a a03d
00000010: 0c93 3f3d dddf b13d b485 973d 8b9c 103d
00000020: 5289 fc3c a734 93bd 22cf db3d 8b58 b9bd
00000030: 6cf8 e4bc 3bd6 ff3b 98c5 d53b ab6c 12bd
00000040: f6b2 ea3d 1e0f dabd 8773 6d3d 3c1a 3ebd
00000050: 4bd8 993d 2585 353d 7b59 d93d 797e d3bd
00000060: 7a35 8f3d 1e42 b63d b7b9 c1bd cf62 6b3d
00000070: 6e5e 4bbc 04fd d5bb cb06 22bc 42bd 1c3d
-0.11540899 -0.11834181 -0.07439508 0.078388326 0.046771094 0.08685277 0.07398549 0.03530554
0.030827198 -0.07187777 0.10732867 -0.09050091 -0.027950488 0.0078075207 0.006523799 -0.035748165
0.11459915 -0.106474146 0.057971504 -0.046411738 0.07511958 0.04431643 0.1061277 -0.10326857
0.06992622 0.088993296 -0.094592504 0.057467278 -0.0124126505 -0.006530406 -0.009889315 0.038266428

blk3.0.0.1.weight f4 [32]
00000000: 54c6 733f afdb 793f 78a4 743f 3cac 803f
00000010: a7ab 7c3f 4703 803f deb1 783f 3fc7 733f
00000020: 4b0f 753f dcad 853f ee4a 853f ccb0 823f
00000030: b1d5 713f bb95 763f e700 783f 3872 783f
00000040: f790 7e3f 4b03 783f f10d 7b3f 71ff 7c3f
00000050: 6861 813f 349d 7d3f 7a43 6f3f 233a 7f3f
00000060: 2088 843f f440 703f f969 7a3f 36f3 823f
00000070: c1bc 753f 7115 763f 0644 803f 5dd3 733f
0.952245 0.97600836 0.9556346 1.0052562 0.9869942 1.0001 0.97146404 0.952259
0.9572646 1.0443683 1.0413492 1.0210204 0.9446669 0.9632222 0.96876377 0.97049284
0.9943995 0.96880025 0.9806815 0.9882727 1.0107851 0.99068 0.93462336 0.99698085
1.0354042 0.9384911 0.9781795 1.0230472 0.9599114 0.96126467 1.0020759 0.9524439

blk3.0.0.1.bias f4 [32]
00000000: 61d4 e6bc c6d7 01bd f18f 9bbc 1d7f d8bb
00000010: 4afa f83a 6ed9 dfbc 7201 41bc 5462 17bd
00000020: 8ec0 10bd 5bc3 bcbc fdb9 b4bb 8f6a b9bc
00000030: af41 9cbc 3ae2 33bd f65d 31bd 71f1 b3bc
00000040: ec48 64bb 29d1 9dbc b2aa febc 4826 c7bc
00000050: 0084 1bbb 7ad6 a4bc 035f 93bc dda8 69bc
00000060: f95c 12bc fdc4 8bbd 46ca c43b ca8b b13b
00000070: 7ead 00bd 9230 1ebd f563 3cbd 1267 38bd
-0.028177442 -0.03169992 -0.018989535 -0.00660695 0.001899549 -0.027325358 -0.01178013 -0.036959007
-0.035339884 -0.023042371 -0.0055153356 -0.022633819 -0.01907429 -0.04391692 -0.0433025 -0.021965714
-0.0034833504 -0.019264774 -0.031087253 -0.024310246 -0.0023729801 -0.020121802 -0.017989641 -0.014261452
-0.008933299 -0.06824682 0.006005558 0.0054182755 -0.031415455 -0.03862054 -0.045993764 -0.04502017

blk3.0.0.1.running_mean f4 [32]
00000000: 8292 c33c 808f 8dbe 5ce6 98bd 5534 94bd
00000010: b3cd 2c3e b34b 293e dcc9 8a3e b220 94bb
00000020: 4043 eabd 83f8 40be 04db 653e 7e36 a5be
00000030: 7097 8b3d edfa 2ebe 2d53 c8be 77a4 593e
00000040: 9493 f33d 5034 1cbe df55 853d 07fb 9bbe
00000050: 468b b7bc 947b 5a3e 0d78 f53e 9bee 03be
00000060: 5e2b 503e 14ca 9bbe 1988 f93c 4822 703e
00000070: 66ce 0dbb edb5 40ba 500e 053d 3b38 76be
0.023873571 -0.27648544 -0.074658126 -0.07236544 0.16875343 0.16532783 0.2710713 -0.004520499
-0.11438608 -0.188448 0.22446829 -0.32268137 0.06815994 -0.17087908 -0.39125958 0.21254145
0.11893383 -0.1525433 0.06510519 -0.30464956 -0.022405278 0.21336204 0.47943154 -0.1288399
0.20329043 -0.3042761 0.030460404 0.23450577 -0.0021637916 -0.0007351328 0.032484353 -0.24044888

blk3.0.0.1.running_var f4 [32]
00000000: 5206 8f3e 3168 203e ee57 243e 58a1 ec3e
00000010: b6c8 4c3e 2afc 9a3e 750f 6f3e 26d1 4f3e
00000020: 6cf5 273e ef2d 073e c237 4c3e 89c7 9f3e
00000030: 2d0e 2d3e 6ba9 263f f65d e13d 7812 8b3e
00000040: 037e 753e ef00 a53e acc4 823e 95f3 473e
00000050: f635 9a3e 27ab 843d a94b ac3e 5a08 693e
00000060: 21aa ed3d 3a4a d03e 9d45 893e 53c3 433d
00000070: 6382 903e f25d b73e de03 f33e 20de 833e
0.2793451 0.15664746 0.16049168 0.46216846 0.1999844 0.3027051 0.2334574 0.20294628
0.16402215 0.13201116 0.19943145 0.3120692 0.16899939 0.6510226 0.1100425 0.27162528
0.23973851 0.32227275 0.25540674 0.19526513 0.30119294 0.06477957 0.33651474 0.22757092
0.11604715 0.4068163 0.26810923 0.047793698 0.28224477 0.35813862 0.47463888 0.25755405

reg.1.weight f4 [1, 32]
00000000: 2b19 263e 48b5 743d 637f 98bd 489e 2c3d
00000010: 9c56 29bd 98eb 4fbd 2036 363d 4e1c d13d
00000020: e307 2ebe 0386 113e cfd6 293e fe89 e4bd
00000030: 406b 7d3d 30af 80bd 3b5f 33be 2c1d 843d
00000040: 8010 aaba 1e1c f13d 8a59 db3d 5608 ee3d
00000050: 182d cbbd 2b97 2fbe d634 cb3d f529 0abe
00000060: 8098 70bb f01a 3e3d fa70 bc3d a0f2 52bd
00000070: 2070 efbb fc72 323d 5d10 013e af87 e6bd
0.16220538 0.059743196 -0.07446172 0.042143136 -0.041342363 -0.05076179 0.04448521 0.10210477
-0.16995196 0.14211278 0.16585849 -0.111591324 0.06186986 -0.06283414 -0.17516796 0.064508766
-0.0012974888 0.11772941 0.107104376 0.11622684 -0.0992071 -0.1714751 0.09922187 -0.13492568
-0.003671199 0.04641241 0.09201236 -0.051500916 -0.0073070675 0.04356669 0.12603898 -0.11256348

regdiff.1.weight f4 [1, 64]
00000000: 6f84 80bc 7544 a53d 371c d0bd 1d55 c4bd
00000010: c9cb b0bd 3919 6bbd f54b 2e3d b206 87ba
00000020: a8a6 bebb 3f2b 0abe 8c75 bebd c1c8 9abd
00000030: 96e8 42bd f1cb f53c fdee 643d f81f d43a
00000040: 838c 5bbc d7db 913d 97af c7bd 64c4 2e3c
00000050: 00c0 aabc 53ee a83c 55fe 80bd 1fbc bcbd
00000060: 4e63 fbbd d5df 823d b414 b53d e332 afbc
00000070: 4ddf b4bc c6e1 8abd 7229 c1bd 393a 503d
00000080: 52e5 84bd f144 bcbd 405f b1bc 5e3d 613d
00000090: cf14 03bd 5a45 993d 5f20 c33c 4a52 69bd
000000a0: c5ea 923c 183a 083e 0892 b23d 806e 873d
000000b0: 41af 82bc 22c1 13bd 0ffb 3cbd cda5 1d3d
000000c0: e335 653d a6b2 a23d e73a 083d 0a6d a7bc
000000d0: 9072 243d 2bc7 06bd 2949 48bd e599 c43d
000000e0: ce1c e33d 8110 3cbd eb30 913d 613c d53c
000000f0: 43da bb3d c340 c03c a7ff a73d 0204 6dbd
-0.01568815 0.08069698 -0.101616316 -0.095865466 -0.08632619 -0.0573971 0.042552907 -0.0010301678
-0.005818207 -0.1349306 -0.09299764 -0.07557822 -0.047585092 0.030004473 0.05589198 0.0016183844
-0.0134002 0.07122009 -0.09750288 0.01066694 -0.020843506 0.020621454 -0.0629851 -0.09215569
-0.122748 0.06390349 0.088418394 -0.02138657 -0.022079134 -0.06781344 -0.09431733 0.050836775
-0.06489052 -0.09192837 -0.021651864 0.054990165 -0.032002266 0.07483931 0.023819147 -0.056963243
0.017934212 0.13303411 0.087192595 0.06612873 -0.015952708 -0.036072858 -0.046137866 0.038488198
0.055959594 0.07944231 0.0332593 -0.020437736 0.040148318 -0.032904785 -0.048897896 0.095996656
0.110894784 -0.045914177 0.070894085 0.026029767 0.091724895 0.02346838 0.08203059 -0.05786515

exp_avg f4 [8, 1, 9]
00000000: 969e 3fbc 85a1 38bc 3842 27bc 2a98 0bbc
00000010: 6e34 d0bb ebba 83bb f06f fdba d55a f9b9
00000020: 389b d538 989f 483a bc31 2b3a a153 ec39
00000030: 7d32 8038 3276 0aba 346d 93ba 0c05 bbba
00000040: 070b 98ba f3db 61b9 49c9 37bb 19b0 05bb
00000050: 5641 90ba a7f0 d237 1006 a23a 6168 123b
00000060: 38ee 303b 7c4a 1f3b 6c02 b63a fb23 24bc
00000070: a080 10bc c2bb edbb af6a b4bb 7ae4 74bb
00000080: 53ee 09bb 980b 58ba 5f37 1bb9 bbe1 64b9
00000090: 7dfa e4bb 4bb5 10bc 8090 25bc 397f 2cbc
000000a0: cad1 24bc 4c5e 11bc e35f efbb aa84 b8bb
000000b0: 45f0 87bb cbb5 333b efd1 8c3a 731d ea38
000000c0: 5c64 beb8 fba1 f339 5aa0 d03a 4eec 3f3b
000000d0: 70c7 813b bb32 8d3b a564 99bc 10f2 9dbc
000000e0: cd5c 9fbc a8e9 9cbc 654b 97bc ea04 91bc
000000f0: 848b 8ebc 5680 90bc fe78 96bc 2cef 83bb
00000100: 3213 f8ba 1e66 86b9 c4b6 2c3a 1f97 583a
00000110: 0469 e239 424e 83b9 547d 80ba 24d4 d7ba
-0.011695525 -0.011268978 -0.010208659 -0.008520165 -0.0063539064 -0.004020085 -0.0019335728 -0.00047560656
0.00010185543 0.0007653176 0.00065305433 0.00045075736 6.11292e-05 -0.00052818947 -0.0011247755 -0.0014268472
-0.0011599966 -0.0002153961 -0.002804356 -0.0020399152 -0.00110058 2.5146013e-05 0.0012361426 0.0022340047
0.0026997458 0.002430587 0.001388622 -0.010018344 -0.008819729 -0.0072550485 -0.0055058817 -0.0037367628
-0.0021046593 -0.00082414737 -0.00014802579 -0.00021827866 -0.0069878683 -0.008832286 -0.010105252 -0.010528379
-0.010059783 -0.00887258 -0.0073051318 -0.005631049 -0.0041485154 0.002742159 0.0010743717 0.00011163475
-9.0785994e-05 0.00046469257 0.0015916929 0.0029285136 0.0039605424 0.004309026 -0.018724749 -0.019280463
-0.01945343 -0.019154385 -0.018468568 -0.017702539 -0.01740051 -0.01763932 -0.01836824 -0.0040263142
-0.0018926619 -0.00025634555 0.00065885135 0.0008262265 0.00043184322 -0.00025044574 -0.0009802976 -0.0016466421

exp_avg_sq f4 [8, 1, 9]
00000000: 826d 033b 4f88 df3a c5c3 ae3a a488 703a
00000010: cd83 0a3a 35ee 8139 ff2d e838 3328 c338
00000020: 7239 1139 9cfa b839 05bd 9039 3cf6 4c39
00000030: 3a65 0339 1303 b538 5475 ba38 560b e838
00000040: 3158 e938 4841 a038 65f5 f537 2641 7d37
00000050: 5bcb be36 58ce 2836 4d59 b936 20de 5537
00000060: e9c9 b237 ddb9 0238 3cce 4a38 5558 973a
00000070: 3b83 813a 947f 473a 0133 013a 3e5d 7b39
00000080: d217 9238 deb0 fe36 f500 a837 cfe6 5b38
00000090: ba0c 7a3b 4a48 843b cf95 843b 80d7 753b
000000a0: d199 503b b587 233b 8e75 f43a d899 b73a
000000b0: 4c02 963a 82c9 cf3a cc73 a33a 8742 553a
000000c0: 23ab c939 49bf cb38 359f 4e38 9ef5 6a39
000000d0: afea 023a 8bec 3e3a 699f 343c c632 303c
000000e0: 7a5a 293c d3fe 213c 7f36 1b3c 378e 153c
000000f0: d971 123c e0dc 143c a575 1f3c 2c2f 603a
00000100: c0dc 303a eefd 093a 4c7f ce39 a865 8c39
00000110: ba47 2639 00bb b238 2b02 7438 89e0 a538
0.0020054285 0.0017054173 0.001333349 0.00091756345 0.0005283922 0.00024782275 0.000110711895 9.305812e-05
0.00013849678 0.00035281933 0.0002760665 0.00019546686 0.00012530843 8.631325e-05 8.891025e-05 0.000110647336
0.00011126733 7.641554e-05 2.9320547e-05 1.5095144e-05 5.686115e-06 2.5154059e-06 5.5238256e-06 1.2747507e-05
2.1313275e-05 3.1167514e-05 4.8352624e-05 0.0011546711 0.0009881029 0.0007610258 0.00049285596 0.00023971961
6.9662594e-05 7.59038e-06 2.0027606e-05 5.2428626e-05 0.0038154558 0.004036938 0.004046179 0.0037512481
0.0031829963 0.0024952714 0.0018650757 0.0014007641 0.0011444776 0.0015852901 0.0012470423 0.00081352185
0.00038465214 9.715424e-05 4.92625e-05 0.00022407479 0.0004994077 0.00072831725 0.0110243345 0.010754293
0.010336513 0.009887415 0.009473442 0.009128145 0.008938276 0.009085864 0.0097326385 0.0008551951
0.00067467615 0.0005263974 0.00039386225 0.0002677862 0.00015857714 8.522533e-05 5.8176152e-05 7.909636e-05

exp_avg f4 [8]
00000000: 6aa8 1e33 fce7 3033 6456 5a32 a693 1732
00000010: 1904 6733 b9a8 96b3 e660 73b2 9755 3eb2
3.6940413e-08 4.1189182e-08 1.2708913e-08 8.822928e-09 5.3787605e-08 -7.01561e-08 -1.4166494e-08 -1.10789165e-08

exp_avg_sq f4 [8]
00000000: 2dc5 8e29 9176 4d28 d854 b827 ac30 5c29
00000010: 9005 062a 0542 7829 548c ae29 5844 0228
6.340271e-14 1.1405496e-14 5.1162247e-15 4.889203e-14 1.1903521e-13 5.5124325e-14 7.751495e-14 7.231269e-15

exp_avg f4 [8]
00000000: c025 4ab9 3a9d 6fba f91c 743a 8ed9 d2b9
00000010: de4b ae3a f5ac 01bb 1624 9eba dbfc 2d3b
-0.00019278284 -0.0009140555 0.00093121786 -0.00040216412 0.0013297757 -0.0019786928 -0.0012065198 0.0026548419

exp_avg_sq f4 [8]
00000000: cea9 7e39 ee65 d638 0260 c938 f09f 8539
00000010: 098a 2e3a 8339 8638 b979 9f39 8b2f b539
0.00024286585 0.00010223301 9.60231e-05 0.000254869 0.0006658142 6.40033e-05 0.00030417534 0.00034558433

exp_avg f4 [8]
00000000: 16e0 c3b9 e87d 083b f436 acbb 60c0 b239
00000010: f81d 933b 0244 95bb b825 9e3a 627c 923b
-0.00037360255 0.0020827 -0.0052555744 0.00034094136 0.0044896565 -0.0045552263 0.0012065684 0.004470394

exp_avg_sq f4 [8]
00000000: a8a8 2c39 37b3 2f39 a7d0 4839 63a9 3e39
00000010: c392 9f39 aa76 9038 7040 fe38 11b7 4e39
0.00016466028 0.00016756063 0.00019151215 0.00018182913 0.0003043619 6.888558e-05 0.00012123666 0.00019713888

exp_avg f4 [16, 8, 4]
00000000: fbbb fc3a c621 113a 18f6 bc3a aebf 073b
00000010: 0520 9e3a e82e d83a 113b 003b 7734 ca3a
00000020: 2eb4 59ba c005 d5b9 efab 1939 1abb 013a
00000030: 0f15 fe3a 57f6 523a 509c e53a 7429 033b
00000040: b96b 9f38 226e ccba 590e 003b af7c 603a
00000050: 1497 233b 94af 3b3a a4d3 933a f802 173b
00000060: d961 2bbb 3762 673b e4fa 4aba 91a2 bfba
00000070: f129 a13a 31e9 8539 b010 043b 89e1 f13a
00000080: f812 ba3a 050c b93a 359b b03a 4258 d33a
00000090: 851e 843a 629c dc3a 1296 d53a c28c eb3a
000000a0: 2018 c7ba b511 1cba 7ad2 2039 4dd2 0538
000000b0: 1da4 ad3a 5550 b73a c4ad d33a ffc7 cb3a
000000c0: fb7c 403a ce97 343a af1f 463a cbf2 b43a
000000d0: 253c c43a 7809 923a 79db c73a 54e9 bc3a
000000e0: b829 223b c937 883a e2a5 bcba a9b2 eb39
000000f0: 916a 9e3a 9d0f cd3a 948b ac3a 0f12 d23a
00000100: 408a 42ba 388f 51ba 5430 cbb9 4bbb e6b7
00000110: 4cb5 a7ba a4d7 6eba a555 03ba 2d13 aab9
00000120: 4f49 9339 b2e2 c1b9 c3fd 56ba 14cd 27ba
00000130: 9a2b 8dba 70d2 81ba 5abb 36ba 691e 86b8
00000140: 8132 5eba 087d 62b9 14e5 fb39 f8b6 be39
00000150: 9ba1 69ba e1d0 68ba 7f1f 4cba 9cf1 42b9
00000160: d5f3 39bb bb98 eab9 b4ad 8fb9 a1b4 d2ba
00000170: 1e5c 75ba e799 62ba 5292 b1b9 a683 8d39
00000180: 614a cb39 654d f83a 092e 423a b745 a53a
00000190: e63f 183a 5546 9c39 8639 c439 ceb1 c33a
000001a0: 2131 073a 71aa 2238 a76c 71ba da57 76ba
000001b0: 962e da36 4aac bc3a e065 223a 9f81 893a
000001c0: fe78 2b3b 8a34 2a3b 3cf2 8cba a037 f23a
000001d0: c069 79ba b20e d63a ca63 763a 55f4 8939
000001e0: 8259 483a d389 94bb e329 b7ba 3d22 393a
000001f0: d496 a53a f440 f53a 73f9 7139 ddb1 d63a
00000200: 0f86 08ba af2e 4b3a db11 e73a bbb9 c839
00000210: 12c5 98ba 2f7d 453a 1ec6 51b9 fa85 a83a
00000220: c1b7 22bb 5e24 1ebb 38d5 06bb f71e 13bb
00000230: dae7 1cba 703b 173a e28b 943a 31db 173a
00000240: 7016 2cba f2eb 6a3b 8569 4b3a 14f5 033a
00000250: 123d fbb9 8966 f6b9 dd45 ef3a cbf6 3f39
00000260: 2574 e33a 5018 4339 4e0b f83a d17e 5c3a
00000270: d027 5aba f5f9 ce3a 5c8a 983a c6ef 243a
00000280: 8fe6 caba 0e65 dcbb 9b7b d2bb 20a4 d13a
00000290: 1a88 abba 058b b5bb 7878 2cbb 4b07 38bb
000002a0: 74b7 083c 7482 2f3c b390 353c b2d9 0c3c
000002b0: 71e8 8cba 60b2 bbbb a436 c5bb 38be c839
000002c0: 9d82 abb8 0592 5fbc 595d 15ba 4ef3 db3b
000002d0: dc21 b6ba 1edd 38bb a9af 08bc 2991 83ba
000002e0: a111 26bb 2f31 363b ba61 1a3c 1673 1dbc
000002f0: 1e50 4bba 44bc 16bc 4181 96bb d5aa 333b
00000300: e875 2d3b 036e 6b3b e63d 9f3b f469 ef3b
00000310: 98da 253b d510 6c3b c70c 903b 1d85 e33b
00000320: 7ac9 713b 791e 6c3b fd11 4e3b 7fa8 8f3a
00000330: 3088 2c3b 797e 533b 86a1 8c3b 1c3c d23b
00000340: d439 f13a 715c 823b e87b 7c3b 0fd8 163c
00000350: 4f2a 273b 80bc 3d3b 423c 893b 1e9d ac3b
00000360: fba8 e3b9 a18f c43a 7b50 183a 8f20 01bb
00000370: 79ef 283b ab66 7b3b b8ab 9a3b 851e 013c
00000380: 0883 5dbb e1c0 a0bb 2ecc 5bbb 0471 dcba
00000390: 4358 82bb cc9d 8abb f868 6cbb 0b99 6bbb
000003a0: 97b1 c23b 82e3 a13b 30ea 203b afdf abb9
000003b0: 2d5a 5bbb 88a1 9cbb 48d6 83bb 1a0e f9ba
000003c0: 7d5b 7bbb e4e8 58bb 0892 8fba a270 003b
000003d0: d111 3abb 7a2e 8fbb d91c 90bb 7501 25bb
000003e0: 850a 0bbb cda0 a23a 1060 68b9 db9d 8bbb
000003f0: 39d8 74bb 483e aabb a3a4 4ebb 269a 35ba
0.0019282097 0.00055363437 0.0014416603 0.0020713615 0.0012063986 0.0016493471 0.0019566456 0.0015427013
-0.0008304742 -0.0004063081 0.00014655267 0.000494884 0.0019384938 0.0008047572 0.0017517898 0.0020013722
7.601776e-05 -0.0015596787 0.0019539802 0.0008563501 0.0024961876 0.0007159647 0.0011278284 0.002304254
-0.002615085 0.0035306343 -0.0007743074 -0.0014620592 0.0012295825 0.00025541478 0.0020151548 0.0018454056
0.0014196327 0.0014117962 0.001347399 0.0016124325 0.0010079896 0.0016831274 0.0016295335 0.0017971026
-0.0015189685 -0.0005953566 0.00015337198 3.190553e-05 0.0013247762 0.0013985733 0.0016149809 0.0015547274
0.00073428423 0.0006889076 0.0007557822 0.0013805268 0.0014971538 0.0011141738 0.0015247903 0.0014412799
0.0024744105 0.0010392602 -0.0014392699 0.00044955805 0.0012086203 0.0015644912 0.0013164156 0.001602711
-0.00074211136 -0.00079940585 -0.00038755185 -2.7505352e-05 -0.001279512 -0.00091111124 -0.00050100154 -0.00032439214
0.00028092644 -0.0003698073 -0.00082012656 -0.00064011035 -0.001077044 -0.0009904634 -0.00069706666 -6.395282e-05
-0.00084761536 -0.00021599617 0.00048045127 0.00036375946 -0.0008912326 -0.0008881223 -0.00077866757 -0.00018591288
-0.0028374095 -0.0004474575 -0.00027404504 -0.001607556 -0.0009359735 -0.0008644149 -0.00033869088 0.000269917
0.00038774594 0.0018943964 0.00074073725 0.0012609278 0.00058078615 0.0002980704 0.00037426892 0.0014930309
0.0005157162 3.8782546e-05 -0.0009209611 -0.0009397246 6.5023296e-06 0.0014394608 0.000619499 0.0010490901
0.0026164646 0.0025971257 -0.0010753344 0.0018479712 -0.0009514354 0.0016331284 0.0009399025 0.00026312718
0.0007642732 -0.0045330315 -0.0013974275 0.0007062292 0.0012633451 0.0018711374 0.00023076478 0.0016379912
-0.00052079646 0.0007750792 0.0017629223 0.00038285353 -0.0011655411 0.00075336074 -0.00020005598 0.0012857311
-0.0024828764 -0.0024130563 -0.0020573866 -0.0022448876 -0.00059854763 0.000576905 0.0011333192 0.0005792855
-0.0006564623 0.00358462 0.0007759559 0.0005033773 -0.00047919952 -0.0004699717 0.0018255074 0.00018307117
0.0017353339 0.00018605706 0.0018924267 0.0008411231 -0.00083219726 0.0015791046 0.0011637914 0.00062918325
-0.0015480089 -0.006725914 -0.0064234263 0.0015994348 -0.0013086826 -0.005540254 -0.0026316922 -0.0028080519
0.00834452 0.010712255 0.011081862 0.0085968245 -0.0010750425 -0.005728051 -0.0060184766 0.00038288697
-8.178244e-05 -0.013645654 -0.0005697809 0.006712354 -0.0013895589 -0.0028207968 -0.008342662 -0.0010037768
-0.0025340097 0.0027800312 0.009422714 -0.009609958 -0.0007755774 -0.009200159 -0.004593045 0.0027415056
0.0026467983 0.0035923726 0.004859674 0.007306332 0.0025307294 0.0036020775 0.0043960544 0.0069433586
0.003689377 0.0036028905 0.0031443827 0.001096025 0.0026326291 0.0032271428 0.004291716 0.006415857
0.0018404075 0.003978305 0.0038526002 0.009206786 0.0025507396 0.0028951466 0.0041880915 0.0052677533
-0.00043422714 0.0014996418 0.00058103324 -0.0019703244 0.0025777502 0.0038360755 0.0047201775 0.007880812
-0.0033800025 -0.0049058055 -0.0033538449 -0.0016818349 -0.003977807 -0.0042302366 -0.0036073308 -0.0035949375
0.0059415805 0.004940451 0.002455365 -0.0003278232 -0.0033470497 -0.004779998 -0.004023347 -0.0019001395
-0.0038354092 -0.0033097798 -0.0010953555 0.0019598384 -0.0028391967 -0.004369554 -0.00439797 -0.002517787
-0.0021215987 0.0012407542 -0.0002216103 -0.004260761 -0.0037360324 -0.005195413 -0.0031531237 -0.0006927572

exp_avg_sq f4 [16, 8, 4]
00000000: 6f14 0939 bca8 3739 fe57 6f39 546c aa39
00000010: 312a 1d39 66c9 3f39 84c5 6839 63ee 9839
00000020: 3b0d 9e38 940c 9238 3ed4 b738 00ad d238
00000030: 4adc 0b39 551e 2539 3cc5 5b39 d931 9039
00000040: 20fe 8a38 0449 2039 449a 3639 c999 023a
00000050: 5d12 1639 96a4 1739 8672 5439 be4b 7839
00000060: 2b40 c038 4953 8438 c0d1 4339 f80e 3f39
00000070: bb3b fc38 6b32 3b39 e833 7139 d249 c139
00000080: e27b 8b37 dfa1 8537 a156 d337 49f6 1c38
00000090: ff3a 4637 ffee 8437 3e76 bf37 9238 fd37
000000a0: 4251 0039 3eb4 4e38 da19 5837 cf7e cb37
000000b0: 36ad 7c37 14f8 4e37 b7ff a937 9828 f937
000000c0: 4078 c536 d102 2338 c2ec da37 bfd4 9538
000000d0: 8889 ce37 2754 2d37 9c38 a237 5986 e037
000000e0: 0204 8638 eb5f 9e38 e085 0639 1c76 0438
000000f0: 8111 3a37 4dcb 9b37 d173 d737 adc4 3438
00000100: d199 fa38 0989 9138 30b1 3d38 1431 a538
00000110: 5d4f 9138 67a1 3738 863c 0138 f515 4f38
00000120: 6b0b 6239 8dbe b338 7e52 1538 9701 cd37
00000130: a459 e838 b670 7238 d58b e637 98e5 6538
00000140: 816b ba38 b714 9d39 c8a7 8238 0464 5339
00000150: 7166 2639 4339 9038 a4f5 5d38 12d1 2438
00000160: 6e24 2039 726c 9239 5509 e338 9b59 3839
00000170: 5eb7 d838 41a3 c238 cf3a f337 aef2 d438
00000180: ad03 063a 4e75 433a 6608 a839 86f1 5c39
00000190: 348b 083a ce36 063a e58c e039 9525 9439
000001a0: c0f8 5e39 6b8d 8a39 41f9 9f39 000c 2039
000001b0: 6b15 e939 0f76 2f3a 52ce d939 0f0b 3839
000001c0: d497 393a a742 d939 4e65 e438 12d9 2a3a
000001d0: faf8 b539 67b8 3d3a 4f16 0e3a 1dbe 3f39
000001e0: fd72 8539 80ac d239 f4c4 b539 be04 473a
000001f0: a8a9 253a ed90 323a 2dc7 9539 9cdf 8c39
00000200: 1ac2 e337 e1e0 5038 5742 2538 9667 bc38
00000210: 7dd6 fc37 0d52 f237 ded4 b537 3d2c 8238
00000220: bd46 d938 f7e0 9e38 beb4 4038 556d a638
00000230: ee47 c637 a151 2038 f5ab 1738 4978 7c38
00000240: 41f0 0538 3ac7 2c39 ff5c ec36 f095 173a
00000250: 17af c037 4e5a 0838 edc7 7d38 87de 4f37
00000260: caf0 b138 f22b 6138 bae4 6e39 6de7 1939
00000270: 968d 0638 a824 a038 7daa c337 76c3 6739
00000280: 4c87 093a aa98 e439 5a99 553a b9fb 5039
00000290: 64ee 9d38 7ab6 173a b5a4 c839 643a 8739
000002a0: 48b5 4f3a 20aa 823a 2f3c 8c3a b078 273a
000002b0: 26ad ad39 049b bb39 c9c8 3b3a 79c4 4939
000002c0: d05a 8f38 c753 c63a 8e4e cb39 8d70 873a
000002d0: ccd9 1d3a b8ee 0c39 016b 753a 241c 9a39
000002e0: fd00 103a ae4c 283a 0a07 c83a 3ca6 8f3a
000002f0: 7e0e 8839 5eeb 4d3a 2de4 2d3a 306d 9239
00000300: fdb2 e137 8cc8 0e38 f029 8338 b10a 2039
00000310: 7c7d ca37 fcdb 0c38 1d0a 6a38 9c6f 0139
00000320: ae6c b938 7028 5a38 eff0 cd37 e966 bb37
00000330: e2a9 d837 a45b e737 88af 4938 42fc f238
00000340: 0042 9337 9cc0 4838 4a60 5838 0709 b339
00000350: cbc1 de37 0664 e437 e6db 3638 8392 a138
00000360: bb47 2639 4226 1b38 9b41 9738 db47 9138
00000370: 35d8 dd37 4e57 1338 8eca 8338 790d 5039
00000380: 9011 4139 7ee6 b239 189f 8139 ffb8 5839
00000390: f644 7939 6123 8d39 258b 9039 89c5 7439
000003a0: 2bcc 093a 3164 cf39 1275 8f39 d82d 1f39
000003b0: fd47 3a39 5a9f 9c39 9fe9 9039 6b2c 3e39
000003c0: b9fc 3539 dbf3 b139 3d89 cb38 6485 dd39
000003d0: 8965 1d39 7897 8d39 f9fe a539 7ee0 4639
000003e0: a154 4939 e3c1 5338 a977 8539 87e8 9e39
000003f0: b2e1 5a39 cf13 c839 3076 6439 29f7 7039
0.0001307295 0.00017515098 0.00022825596 0.00032505638 0.00014988404 0.00018290206 0.00022198824 0.0002916931
7.5364915e-05 6.9641654e-05 8.765653e-05 0.00010045804 0.00013338137 0.00015746926 0.00020958943 0.0002750296
6.627687e-05 0.0001528599 0.00017414341 0.0004982022 0.00014311956 0.00014461795 0.00020260559 0.00023679339
9.167226e-05 6.3097636e-05 0.00018674787 0.00018220756 0.00012027422 0.00017852492 0.00023002888 0.0003686683
1.6627779e-05 1.5930213e-05 2.51935e-05 3.742267e-05 1.1815456e-05 1.5846917e-05 2.2824035e-05 3.0186293e-05
0.00012237302 4.928209e-05 1.2880622e-05 2.4258536e-05 1.5060699e-05 1.2336317e-05 2.0265446e-05 2.9702016e-05
5.8850565e-06 3.886485e-05 2.6097874e-05 7.144501e-05 2.4621157e-05 1.0331197e-05 1.9338266e-05 2.6765441e-05
6.3903644e-05 7.551893e-05 0.00012829108 3.158125e-05 1.1090539e-05 1.857211e-05 2.5683928e-05 4.3098513e-05
0.000119495795 6.9396636e-05 4.522613e-05 7.8769546e-05 6.928921e-05 4.3780918e-05 3.0812364e-05 4.9373095e-05
0.00021557293 8.570878e-05 3.5601195e-05 2.4438645e-05 0.00011079319 5.7802266e-05 2.7483251e-05 5.481168e-05
8.889195e-05 0.00029960807 6.230135e-05 0.00020159787 0.00015869156 6.877121e-05 5.2919277e-05 3.929536e-05
0.0001527236 0.00027928088 0.00010825942 0.00017580988 0.000103338374 9.281049e-05 2.8995242e-05 0.000101541504
0.0005112242 0.00074561394 0.00032049714 0.0002107081 0.0005208731 0.0005119861 0.00042829584 0.0002825676
0.00021264236 0.00026426776 0.00030512552 0.0001526326 0.0004445718 0.00066933123 0.00041543186 0.00017551727
0.0007079814 0.00041439125 0.00010890757 0.00065173313 0.00034708512 0.0007237256 0.00054201944 0.00018286002
0.0002545341 0.00040182844 0.00034669752 0.0007591954 0.0006319531 0.0006811757 0.00028567892 0.00026869483
2.7150894e-05 4.98005e-05 3.940085e-05 8.983833e-05 3.014062e-05 2.8886856e-05 2.1676005e-05 6.207123e-05
0.000103605424 7.57593e-05 4.5944696e-05 7.9358615e-05 2.3636934e-05 3.8222995e-05 3.6161353e-05 6.0193506e-05
3.1933425e-05 0.00016477416 7.0441743e-06 0.00057825353 2.2969716e-05 3.250903e-05 6.0506096e-05 1.2389973e-05
8.484868e-05 5.3685108e-05 0.00022782656 0.0001467743 3.207995e-05 7.636222e-05 2.3325201e-05 0.00022102692
0.0005246296 0.00043601292 0.00081481563 0.000199302 7.530747e-05 0.0005787384 0.0003826969 0.0002579271
0.00079234364 0.0009968914 0.0010699088 0.0006388528 0.00033126137 0.00035782915 0.0007163403 0.00019242046
6.8356865e-05 0.0015131169 0.00038777705 0.0010333225 0.0006021529 0.0001344037 0.0009361953 0.00029394135
0.00054933113 0.00064201176 0.0015260887 0.0010959576 0.0002595074 0.0007855202 0.0006633427 0.0002792864
2.6905438e-05 3.4042212e-05 6.254378e-05 0.00015262772 2.413871e-05 3.3583477e-05 5.5799366e-05 0.00012343976
8.8417306e-05 5.201291e-05 2.4550098e-05 2.2340058e-05 2.5828314e-05 2.758002e-05 4.808561e-05 0.00011586446
1.75545e-05 4.7863097e-05 5.158809e-05 0.00034148266 2.6554704e-05 2.7226295e-05 4.3596978e-05 7.704368e-05
0.00015857715 3.699051e-05 7.212461e-05 6.927523e-05 2.6445932e-05 3.512884e-05 6.2842955e-05 0.00019841445
0.00018412457 0.00034122536 0.0002472333 0.00020668282 0.0002377218 0.00026919975 0.0002756949 0.00023343241
0.00052565587 0.00039556765 0.0002736231 0.000151805 0.0001776516 0.00029873365 0.00027639882 0.00018136359
0.00017355652 0.00033941757 9.705357e-05 0.0004225179 0.00015010512 0.0002700647 0.00031661222 0.00018966381
0.0001920038 5.048689e-05 0.0002545689 0.00030309355 0.00020874178 0.0003816173 0.00021787803 0.00022980258

exp_avg f4 [16]
00000000: 6196 1e2f 0e08 88af 7755 c630 9d55 74b0
00000010: 6eb2 0231 8698 92b1 5640 9630 32ce 9a31
00000020: a589 5430 fa0d d9b0 d0a5 16b1 4eb8 68b1
00000030: 6767 5d30 1a2f 2db0 e84b edb0 68ce c031
1.4423442e-10 -2.474398e-10 1.4430687e-09 -8.8888347e-10 1.9018915e-09 -4.266499e-09 1.0932222e-09 4.5054316e-09
7.7320755e-10 -1.57928e-09 -2.1922126e-09 -3.3865208e-09 8.0546275e-10 -6.300397e-10 -1.7265593e-09 5.611401e-09

exp_avg_sq f4 [16]
00000000: c747 b724 8a43 6324 bedb a924 b463 ba24
00000010: 23d7 2d25 3994 2c25 3102 1a25 00cd 6225
00000020: e593 cb24 435d 8d24 dee9 7925 c69c 1d25
00000030: b1b4 9c25 4a23 8624 a795 8626 0201 af26
7.9485195e-17 4.9279986e-17 7.3664325e-17 8.0833545e-17 1.5078249e-16 1.4968842e-16 1.3358113e-16 1.9671832e-16
8.828776e-17 6.1306994e-17 2.1676545e-16 1.3670696e-16 2.7184127e-16 5.817302e-17 9.338681e-16 1.2143337e-15

exp_avg f4 [16]
00000000: 2793 103a 7e1d 3e3a a474 13b8 71fc c839
00000010: d3ae dbb5 cc57 9bba c4b6 373a f6d2 c03a
00000020: 2549 df34 456b f338 1a1d 2c3a 41a8 e0b7
00000030: 4cb7 97ba eb29 b639 920a 8eba 726d 0dba
0.00055150915 0.00072523195 -3.515616e-05 0.00038335056 -1.6367652e-06 -0.0011851727 0.000700813 0.0014711309
4.1590206e-07 0.000116071235 0.0006565616 -2.678123e-05 -0.0011575012 0.00034744976 -0.001083689 -0.0005395032

exp_avg_sq f4 [16]
00000000: 11a7 8d37 d5a3 4837 ae5c e037 7793 fe37
00000010: 0cc6 4d37 eb3b 6137 0e31 f037 c757 f537
00000020: 1554 de37 b501 4f37 abec ec37 2237 1838
00000030: 2891 7b37 92d8 0238 0a84 dc37 e91c d637
1.6886306e-05 1.1959074e-05 2.6746038e-05 3.0347828e-05 1.2265064e-05 1.3424996e-05 2.8633072e-05 2.924715e-05
2.6503616e-05 1.2338559e-05 2.82436e-05 3.629097e-05 1.4994563e-05 3.1196112e-05 2.628753e-05 2.552425e-05

exp_avg f4 [16]
00000000: ff2b 9c3a 8145 8cba 6735 9e39 ff30 8939
00000010: 596f 383b 7ebf abba 55fb abbb deb9 7a3b
00000020: 2a60 dfb9 678f 193b 542e 3f37 4470 9c39
00000030: 3bb1 f73a f95f f0b7 fd28 643b 0fb4 fb3a
0.0011914967 -0.0010701866 0.00030175896 0.0002616718 0.002814254 -0.0013103334 -0.005248467 0.0038257758
-0.00042605522 0.0023431422 1.1395274e-05 0.00029838283 0.0018897423 -2.865492e-05 0.003481447 0.0019203442

exp_avg_sq f4 [16]
00000000: f486 1d38 80c7 a538 9d41 0738 68ff 6638
00000010: 8adc 1439 fe33 3338 a516 1739 2340 9638
00000020: b0f9 dd38 e4cb d438 6eea c037 c26d e038
00000030: bb49 cc38 ba04 b438 b1a5 0e39 2bce 1939
3.75574e-05 7.904973e-05 3.2247615e-05 5.507414e-05 0.00014196537 4.2725347e-05 0.00014408918 7.164504e-05
0.00010584609 0.00010146925 2.2997348e-05 0.00010701596 9.7412114e-05 8.583949e-05 0.000136039 0.0001466802
